…
        type='TuSimple',
        data_root=dataset_path,
        split='test',
        processes=val_process,
    ),
    test=dict(
        type='TuSimple',
        data_root=dataset_path,
        split='test',
        processes=val_process,
    )
)


batch_size = 8 
workers = 12
num_classes = 6 + 1
ignore_label = 255
log_interval = 100
eval_ep = 1
save_ep = epochs
test_json_file='data/tusimple/test_label.json'
lr_update_by_epoch = False
2024-11-28 15:34:18,066 - lanedet.utils.recorder - INFO - Network: 
MMDataParallel(
  (module): Detector(
    (backbone): ResNetWrapper(
      (model): ResNet(
        (conv1): Conv2d(3, 64, kernel_size=(7, 7), stride=(2, 2), padding=(3, 3), bias=False)
        (bn1): BatchNorm2d(64, eps=1e-05, momentum=0.1, affine=True, track_running_stats=True)
        (relu): ReLU(inplace=True)
        (maxpool): MaxPool2d(kernel_size=3, stride=2, padding=1, dilation=1, ceil_mode=False)
        (layer1): Sequential(
          (0): BasicBlock(
            (conv1): Conv2d(64, 64, kernel_size=(3, 3), stride=(1, 1), padding=(1, 1), bias=False)
            (bn1): BatchNorm2d(64, eps=1e-05, momentum=0.1, affine=True, track_running_stats=True)
            (relu): ReLU(inplace=True)
            (conv2): Conv2d(64, 64, kernel_size=(3, 3), stride=(1, 1), padding=(1, 1), bias=False)
            (bn2): BatchNorm2d(64, eps=1e-05, momentum=0.1, affine=True, track_running_stats=True)
          )
          (1): BasicBlock(
            (conv1): Conv2d(64, 64, kernel_size=(3, 3), stride=(1, 1), padding=(1, 1), bias=False)
            (bn1): BatchNorm2d(64, eps=1e-05, momentum=0.1, affine=True, track_running_stats=True)
            (relu): ReLU(inplace=True)
            (conv2): Conv2d(64, 64, kernel_size=(3, 3), stride=(1, 1), padding=(1, 1), bias=False)
            (bn2): BatchNorm2d(64, eps=1e-05, momentum=0.1, affine=True, track_running_stats=True)
          )
          (2): BasicBlock(
            (conv1): Conv2d(64, 64, kernel_size=(3, 3), stride=(1, 1), padding=(1, 1), bias=False)
            (bn1): BatchNorm2d(64, eps=1e-05, momentum=0.1, affine=True, track_running_stats=True)
            (relu): ReLU(inplace=True)
            (conv2): Conv2d(64, 64, kernel_size=(3, 3), stride=(1, 1), padding=(1, 1), bias=False)
            (bn2): BatchNorm2d(64, eps=1e-05, momentum=0.1, affine=True, track_running_stats=True)
          )
        )
        (layer2): Sequential(
          (0): BasicBlock(
            (conv1): Conv2d(64, 128, kernel_size=(3, 3), stride=(2, 2), padding=(1, 1), bias=False)
            (bn1): BatchNorm2d(128, eps=1e-05, momentum=0.1, affine=True, track_running_stats=True)
            (relu): ReLU(inplace=True)
            (conv2): Conv2d(128, 128, kernel_size=(3, 3), stride=(1, 1), padding=(1, 1), bias=False)
            (bn2): BatchNorm2d(128, eps=1e-05, momentum=0.1, affine=True, track_running_stats=True)
            (downsample): Sequential(
              (0): Conv2d(64, 128, kernel_size=(1, 1), stride=(2, 2), bias=False)
              (1): BatchNorm2d(128, eps=1e-05, momentum=0.1, affine=True, track_running_stats=True)
            )
          )
          (1): BasicBlock(
            (conv1): Conv2d(128, 128, kernel_size=(3, 3), stride=(1, 1), padding=(1, 1), bias=False)
            (bn1): BatchNorm2d(128, eps=1e-05, momentum=0.1, affine=True, track_running_stats=True)
            (relu): ReLU(inplace=True)
            (conv2): Conv2d(128, 128, kernel_size=(3, 3), stride=(1, 1), padding=(1, 1), bias=False)
            (bn2): BatchNorm2d(128, eps=1e-05, momentum=0.1, affine=True, track_running_stats=True)
          )
          (2): BasicBlock(
            (conv1): Conv2d(128, 128, kernel_size=(3, 3), stride=(1, 1), padding=(1, 1), bias=False)
            (bn1): BatchNorm2d(128, eps=1e-05, momentum=0.1, affine=True, track_running_stats=True)
            (relu): ReLU(inplace=True)
            (conv2): Conv2d(128, 128, kernel_size=(3, 3), stride=(1, 1), padding=(1, 1), bias=False)
            (bn2): BatchNorm2d(128, eps=1e-05, momentum=0.1, affine=True, track_running_stats=True)
          )
          (3): BasicBlock(
            (conv1): Conv2d(128, 128, kernel_size=(3, 3), stride=(1, 1), padding=(1, 1), bias=False)
            (bn1): BatchNorm2d(128, eps=1e-05, momentum=0.1, affine=True, track_running_stats=True)
            (relu): ReLU(inplace=True)
            (conv2): Conv2d(128, 128, kernel_size=(3, 3), stride=(1, 1), padding=(1, 1), bias=False)
            (bn2): BatchNorm2d(128, eps=1e-05, momentum=0.1, affine=True, track_running_stats=True)
          )
        )
        (layer3): Sequential(
          (0): BasicBlock(
            (conv1): Conv2d(128, 256, kernel_size=(3, 3), stride=(1, 1), padding=(1, 1), bias=False)
            (bn1): BatchNorm2d(256, eps=1e-05, momentum=0.1, affine=True, track_running_stats=True)
            (relu): ReLU(inplace=True)
            (conv2): Conv2d(256, 256, kernel_size=(3, 3), stride=(1, 1), padding=(1, 1), bias=False)
            (bn2): BatchNorm2d(256, eps=1e-05, momentum=0.1, affine=True, track_running_stats=True)
            (downsample): Sequential(
              (0): Conv2d(128, 256, kernel_size=(1, 1), stride=(1, 1), bias=False)
              (1): BatchNorm2d(256, eps=1e-05, momentum=0.1, affine=True, track_running_stats=True)
            )
          )
          (1): BasicBlock(
            (conv1): Conv2d(256, 256, kernel_size=(3, 3), stride=(1, 1), padding=(2, 2), dilation=(2, 2), bias=False)
            (bn1): BatchNorm2d(256, eps=1e-05, momentum=0.1, affine=True, track_running_stats=True)
            (relu): ReLU(inplace=True)
            (conv2): Conv2d(256, 256, kernel_size=(3, 3), stride=(1, 1), padding=(2, 2), dilation=(2, 2), bias=False)
            (bn2): BatchNorm2d(256, eps=1e-05, momentum=0.1, affine=True, track_running_stats=True)
          )
          (2): BasicBlock(
            (conv1): Conv2d(256, 256, kernel_size=(3, 3), stride=(1, 1), padding=(2, 2), dilation=(2, 2), bias=False)
            (bn1): BatchNorm2d(256, eps=1e-05, momentum=0.1, affine=True, track_running_stats=True)
            (relu): ReLU(inplace=True)
            (conv2): Conv2d(256, 256, kernel_size=(3, 3), stride=(1, 1), padding=(2, 2), dilation=(2, 2), bias=False)
            (bn2): BatchNorm2d(256, eps=1e-05, momentum=0.1, affine=True, track_running_stats=True)
          )
          (3): BasicBlock(
            (conv1): Conv2d(256, 256, kernel_size=(3, 3), stride=(1, 1), padding=(2, 2), dilation=(2, 2), bias=False)
            (bn1): BatchNorm2d(256, eps=1e-05, momentum=0.1, affine=True, track_running_stats=True)
            (relu): ReLU(inplace=True)
            (conv2): Conv2d(256, 256, kernel_size=(3, 3), stride=(1, 1), padding=(2, 2), dilation=(2, 2), bias=False)
            (bn2): BatchNorm2d(256, eps=1e-05, momentum=0.1, affine=True, track_running_stats=True)
          )
          (4): BasicBlock(
            (conv1): Conv2d(256, 256, kernel_size=(3, 3), stride=(1, 1), padding=(2, 2), dilation=(2, 2), bias=False)
            (bn1): BatchNorm2d(256, eps=1e-05, momentum=0.1, affine=True, track_running_stats=True)
            (relu): ReLU(inplace=True)
            (conv2): Conv2d(256, 256, kernel_size=(3, 3), stride=(1, 1), padding=(2, 2), dilation=(2, 2), bias=False)
            (bn2): BatchNorm2d(256, eps=1e-05, momentum=0.1, affine=True, track_running_stats=True)
          )
          (5): BasicBlock(
            (conv1): Conv2d(256, 256, kernel_size=(3, 3), stride=(1, 1), padding=(2, 2), dilation=(2, 2), bias=False)
            (bn1): BatchNorm2d(256, eps=1e-05, momentum=0.1, affine=True, track_running_stats=True)
            (relu): ReLU(inplace=True)
            (conv2): Conv2d(256, 256, kernel_size=(3, 3), stride=(1, 1), padding=(2, 2), dilation=(2, 2), bias=False)
            (bn2): BatchNorm2d(256, eps=1e-05, momentum=0.1, affine=True, track_running_stats=True)
          )
        )
        (layer4): Sequential(
          (0): BasicBlock(
            (conv1): Conv2d(256, 512, kernel_size=(3, 3), stride=(1, 1), padding=(2, 2), dilation=(2, 2), bias=False)
            (bn1): BatchNorm2d(512, eps=1e-05, momentum=0.1, affine=True, track_running_stats=True)
            (relu): ReLU(inplace=True)
            (conv2): Conv2d(512, 512, kernel_size=(3, 3), stride=(1, 1), padding=(2, 2), dilation=(2, 2), bias=False)
            (bn2): BatchNorm2d(512, eps=1e-05, momentum=0.1, affine=True, track_running_stats=True)
            (downsample): Sequential(
              (0): Conv2d(256, 512, kernel_size=(1, 1), stride=(1, 1), bias=False)
              (1): BatchNorm2d(512, eps=1e-05, momentum=0.1, affine=True, track_running_stats=True)
            )
          )
          (1): BasicBlock(
            (conv1): Conv2d(512, 512, kernel_size=(3, 3), stride=(1, 1), padding=(4, 4), dilation=(4, 4), bias=False)
            (bn1): BatchNorm2d(512, eps=1e-05, momentum=0.1, affine=True, track_running_stats=True)
            (relu): ReLU(inplace=True)
            (conv2): Conv2d(512, 512, kernel_size=(3, 3), stride=(1, 1), padding=(4, 4), dilation=(4, 4), bias=False)
            (bn2): BatchNorm2d(512, eps=1e-05, momentum=0.1, affine=True, track_running_stats=True)
          )
          (2): BasicBlock(
            (conv1): Conv2d(512, 512, kernel_size=(3, 3), stride=(1, 1), padding=(4, 4), dilation=(4, 4), bias=False)
            (bn1): BatchNorm2d(512, eps=1e-05, momentum=0.1, affine=True, track_running_stats=True)
            (relu): ReLU(inplace=True)
            (conv2): Conv2d(512, 512, kernel_size=(3, 3), stride=(1, 1), padding=(4, 4), dilation=(4, 4), bias=False)
            (bn2): BatchNorm2d(512, eps=1e-05, momentum=0.1, affine=True, track_running_stats=True)
          )
        )
      )
      (out): Conv2d(512, 128, kernel_size=(1, 1), stride=(1, 1), bias=False)
    )
    (aggregator): RESA(
      (conv_d0): Conv2d(128, 128, kernel_size=(1, 9), stride=(1, 1), padding=(0, 4), bias=False)
      (conv_u0): Conv2d(128, 128, kernel_size=(1, 9), stride=(1, 1), padding=(0, 4), bias=False)
      (conv_r0): Conv2d(128, 128, kernel_size=(9, 1), stride=(1, 1), padding=(4, 0), bias=False)
      (conv_l0): Conv2d(128, 128, kernel_size=(9, 1), stride=(1, 1), padding=(4, 0), bias=False)
      (conv_d1): Conv2d(128, 128, kernel_size=(1, 9), stride=(1, 1), padding=(0, 4), bias=False)
      (conv_u1): Conv2d(128, 128, kernel_size=(1, 9), stride=(1, 1), padding=(0, 4), bias=False)
      (conv_r1): Conv2d(128, 128, kernel_size=(9, 1), stride=(1, 1), padding=(4, 0), bias=False)
      (conv_l1): Conv2d(128, 128, kernel_size=(9, 1), stride=(1, 1), padding=(4, 0), bias=False)
      (conv_d2): Conv2d(128, 128, kernel_size=(1, 9), stride=(1, 1), padding=(0, 4), bias=False)
      (conv_u2): Conv2d(128, 128, kernel_size=(1, 9), stride=(1, 1), padding=(0, 4), bias=False)
      (conv_r2): Conv2d(128, 128, kernel_size=(9, 1), stride=(1, 1), padding=(4, 0), bias=False)
      (conv_l2): Conv2d(128, 128, kernel_size=(9, 1), stride=(1, 1), padding=(4, 0), bias=False)
      (conv_d3): Conv2d(128, 128, kernel_size=(1, 9), stride=(1, 1), padding=(0, 4), bias=False)
      (conv_u3): Conv2d(128, 128, kernel_size=(1, 9), stride=(1, 1), padding=(0, 4), bias=False)
      (conv_r3): Conv2d(128, 128, kernel_size=(9, 1), stride=(1, 1), padding=(4, 0), bias=False)
      (conv_l3): Conv2d(128, 128, kernel_size=(9, 1), stride=(1, 1), padding=(4, 0), bias=False)
    )
    (heads): LaneSeg(
      (decoder): BUSD(
        (layers): ModuleList(
          (0): UpsamplerBlock(
            (conv): ConvTranspose2d(128, 64, kernel_size=(3, 3), stride=(2, 2), padding=(1, 1), output_padding=(1, 1))
            (bn): BatchNorm2d(64, eps=0.001, momentum=0.1, affine=True, track_running_stats=True)
            (follows): ModuleList(
              (0): non_bottleneck_1d(
                (conv3x1_1): Conv2d(64, 64, kernel_size=(3, 1), stride=(1, 1), padding=(1, 0))
                (conv1x3_1): Conv2d(64, 64, kernel_size=(1, 3), stride=(1, 1), padding=(0, 1))
                (bn1): BatchNorm2d(64, eps=0.001, momentum=0.1, affine=True, track_running_stats=True)
                (conv3x1_2): Conv2d(64, 64, kernel_size=(3, 1), stride=(1, 1), padding=(1, 0))
                (conv1x3_2): Conv2d(64, 64, kernel_size=(1, 3), stride=(1, 1), padding=(0, 1))
                (bn2): BatchNorm2d(64, eps=0.001, momentum=0.1, affine=True, track_running_stats=True)
                (dropout): Dropout2d(p=0, inplace=False)
              )
              (1): non_bottleneck_1d(
                (conv3x1_1): Conv2d(64, 64, kernel_size=(3, 1), stride=(1, 1), padding=(1, 0))
                (conv1x3_1): Conv2d(64, 64, kernel_size=(1, 3), stride=(1, 1), padding=(0, 1))
                (bn1): BatchNorm2d(64, eps=0.001, momentum=0.1, affine=True, track_running_stats=True)
                (conv3x1_2): Conv2d(64, 64, kernel_size=(3, 1), stride=(1, 1), padding=(1, 0))
                (conv1x3_2): Conv2d(64, 64, kernel_size=(1, 3), stride=(1, 1), padding=(0, 1))
                (bn2): BatchNorm2d(64, eps=0.001, momentum=0.1, affine=True, track_running_stats=True)
                (dropout): Dropout2d(p=0, inplace=False)
              )
            )
            (interpolate_conv): Conv2d(128, 64, kernel_size=(1, 1), stride=(1, 1), bias=False)
            (interpolate_bn): BatchNorm2d(64, eps=0.001, momentum=0.1, affine=True, track_running_stats=True)
          )
          (1): UpsamplerBlock(
            (conv): ConvTranspose2d(64, 32, kernel_size=(3, 3), stride=(2, 2), padding=(1, 1), output_padding=(1, 1))
            (bn): BatchNorm2d(32, eps=0.001, momentum=0.1, affine=True, track_running_stats=True)
            (follows): ModuleList(
              (0): non_bottleneck_1d(
                (conv3x1_1): Conv2d(32, 32, kernel_size=(3, 1), stride=(1, 1), padding=(1, 0))
                (conv1x3_1): Conv2d(32, 32, kernel_size=(1, 3), stride=(1, 1), padding=(0, 1))
                (bn1): BatchNorm2d(32, eps=0.001, momentum=0.1, affine=True, track_running_stats=True)
                (conv3x1_2): Conv2d(32, 32, kernel_size=(3, 1), stride=(1, 1), padding=(1, 0))
                (conv1x3_2): Conv2d(32, 32, kernel_size=(1, 3), stride=(1, 1), padding=(0, 1))
                (bn2): BatchNorm2d(32, eps=0.001, momentum=0.1, affine=True, track_running_stats=True)
                (dropout): Dropout2d(p=0, inplace=False)
              )
              (1): non_bottleneck_1d(
                (conv3x1_1): Conv2d(32, 32, kernel_size=(3, 1), stride=(1, 1), padding=(1, 0))
                (conv1x3_1): Conv2d(32, 32, kernel_size=(1, 3), stride=(1, 1), padding=(0, 1))
                (bn1): BatchNorm2d(32, eps=0.001, momentum=0.1, affine=True, track_running_stats=True)
                (conv3x1_2): Conv2d(32, 32, kernel_size=(3, 1), stride=(1, 1), padding=(1, 0))
                (conv1x3_2): Conv2d(32, 32, kernel_size=(1, 3), stride=(1, 1), padding=(0, 1))
                (bn2): BatchNorm2d(32, eps=0.001, momentum=0.1, affine=True, track_running_stats=True)
                (dropout): Dropout2d(p=0, inplace=False)
              )
            )
            (interpolate_conv): Conv2d(64, 32, kernel_size=(1, 1), stride=(1, 1), bias=False)
            (interpolate_bn): BatchNorm2d(32, eps=0.001, momentum=0.1, affine=True, track_running_stats=True)
          )
          (2): UpsamplerBlock(
            (conv): ConvTranspose2d(32, 16, kernel_size=(3, 3), stride=(2, 2), padding=(1, 1), output_padding=(1, 1))
            (bn): BatchNorm2d(16, eps=0.001, momentum=0.1, affine=True, track_running_stats=True)
            (follows): ModuleList(
              (0): non_bottleneck_1d(
                (conv3x1_1): Conv2d(16, 16, kernel_size=(3, 1), stride=(1, 1), padding=(1, 0))
                (conv1x3_1): Conv2d(16, 16, kernel_size=(1, 3), stride=(1, 1), padding=(0, 1))
                (bn1): BatchNorm2d(16, eps=0.001, momentum=0.1, affine=True, track_running_stats=True)
                (conv3x1_2): Conv2d(16, 16, kernel_size=(3, 1), stride=(1, 1), padding=(1, 0))
                (conv1x3_2): Conv2d(16, 16, kernel_size=(1, 3), stride=(1, 1), padding=(0, 1))
                (bn2): BatchNorm2d(16, eps=0.001, momentum=0.1, affine=True, track_running_stats=True)
                (dropout): Dropout2d(p=0, inplace=False)
              )
              (1): non_bottleneck_1d(
                (conv3x1_1): Conv2d(16, 16, kernel_size=(3, 1), stride=(1, 1), padding=(1, 0))
                (conv1x3_1): Conv2d(16, 16, kernel_size=(1, 3), stride=(1, 1), padding=(0, 1))
                (bn1): BatchNorm2d(16, eps=0.001, momentum=0.1, affine=True, track_running_stats=True)
                (conv3x1_2): Conv2d(16, 16, kernel_size=(3, 1), stride=(1, 1), padding=(1, 0))
                (conv1x3_2): Conv2d(16, 16, kernel_size=(1, 3), stride=(1, 1), padding=(0, 1))
                (bn2): BatchNorm2d(16, eps=0.001, momentum=0.1, affine=True, track_running_stats=True)
                (dropout): Dropout2d(p=0, inplace=False)
              )
            )
            (interpolate_conv): Conv2d(32, 16, kernel_size=(1, 1), stride=(1, 1), bias=False)
            (interpolate_bn): BatchNorm2d(16, eps=0.001, momentum=0.1, affine=True, track_running_stats=True)
          )
        )
        (output_conv): Conv2d(16, 7, kernel_size=(1, 1), stride=(1, 1), bias=False)
      )
    )
  )
)
2024-11-28 15:34:18,067 - lanedet.utils.recorder - INFO - Build train loader...
2024-11-28 15:34:18,067 - lanedet.datasets.base_dataset - INFO - Loading TuSimple annotations...
2024-11-28 15:34:18,068 - lanedet.datasets.base_dataset - INFO - /home/ti121alk/Dokumente/lanedet
2024-11-28 15:34:18,949 - lanedet.datasets.base_dataset - INFO - /home/ti121alk/Dokumente/lanedet
…
