…
        processes=train_process,
    ),
    val=dict(
        type=dataset_type,
        data_root=dataset_path,
        split='test',
        processes=val_process,
    ),
    test=dict(
        type=dataset_type,
        data_root=dataset_path,
        split='test',
        processes=val_process,
    )
)


workers = 12
log_interval = 100
seed=0
lr_update_by_epoch = False

2024-11-26 03:10:02,639 - lanedet.utils.recorder - INFO - Network: 
MMDataParallel(
  (module): Detector(
    (backbone): MobileNet(
      (model): MobileNetV2(
        (features): Sequential(
          (0): ConvBNActivation(
            (0): Conv2d(3, 32, kernel_size=(3, 3), stride=(2, 2), padding=(1, 1), bias=False)
            (1): BatchNorm2d(32, eps=1e-05, momentum=0.1, affine=True, track_running_stats=True)
            (2): ReLU6(inplace=True)
          )
          (1): InvertedResidual(
            (conv): Sequential(
              (0): ConvBNActivation(
                (0): Conv2d(32, 32, kernel_size=(3, 3), stride=(1, 1), padding=(1, 1), groups=32, bias=False)
                (1): BatchNorm2d(32, eps=1e-05, momentum=0.1, affine=True, track_running_stats=True)
                (2): ReLU6(inplace=True)
              )
              (1): Conv2d(32, 16, kernel_size=(1, 1), stride=(1, 1), bias=False)
              (2): BatchNorm2d(16, eps=1e-05, momentum=0.1, affine=True, track_running_stats=True)
            )
          )
          (2): InvertedResidual(
            (conv): Sequential(
              (0): ConvBNActivation(
                (0): Conv2d(16, 96, kernel_size=(1, 1), stride=(1, 1), bias=False)
                (1): BatchNorm2d(96, eps=1e-05, momentum=0.1, affine=True, track_running_stats=True)
                (2): ReLU6(inplace=True)
              )
              (1): ConvBNActivation(
                (0): Conv2d(96, 96, kernel_size=(3, 3), stride=(2, 2), padding=(1, 1), groups=96, bias=False)
                (1): BatchNorm2d(96, eps=1e-05, momentum=0.1, affine=True, track_running_stats=True)
                (2): ReLU6(inplace=True)
              )
              (2): Conv2d(96, 24, kernel_size=(1, 1), stride=(1, 1), bias=False)
              (3): BatchNorm2d(24, eps=1e-05, momentum=0.1, affine=True, track_running_stats=True)
            )
          )
          (3): InvertedResidual(
            (conv): Sequential(
              (0): ConvBNActivation(
                (0): Conv2d(24, 144, kernel_size=(1, 1), stride=(1, 1), bias=False)
                (1): BatchNorm2d(144, eps=1e-05, momentum=0.1, affine=True, track_running_stats=True)
                (2): ReLU6(inplace=True)
              )
              (1): ConvBNActivation(
                (0): Conv2d(144, 144, kernel_size=(3, 3), stride=(1, 1), padding=(1, 1), groups=144, bias=False)
                (1): BatchNorm2d(144, eps=1e-05, momentum=0.1, affine=True, track_running_stats=True)
                (2): ReLU6(inplace=True)
              )
              (2): Conv2d(144, 24, kernel_size=(1, 1), stride=(1, 1), bias=False)
              (3): BatchNorm2d(24, eps=1e-05, momentum=0.1, affine=True, track_running_stats=True)
            )
          )
          (4): InvertedResidual(
            (conv): Sequential(
              (0): ConvBNActivation(
                (0): Conv2d(24, 144, kernel_size=(1, 1), stride=(1, 1), bias=False)
                (1): BatchNorm2d(144, eps=1e-05, momentum=0.1, affine=True, track_running_stats=True)
                (2): ReLU6(inplace=True)
              )
              (1): ConvBNActivation(
                (0): Conv2d(144, 144, kernel_size=(3, 3), stride=(2, 2), padding=(1, 1), groups=144, bias=False)
                (1): BatchNorm2d(144, eps=1e-05, momentum=0.1, affine=True, track_running_stats=True)
                (2): ReLU6(inplace=True)
              )
              (2): Conv2d(144, 32, kernel_size=(1, 1), stride=(1, 1), bias=False)
              (3): BatchNorm2d(32, eps=1e-05, momentum=0.1, affine=True, track_running_stats=True)
            )
          )
          (5): InvertedResidual(
            (conv): Sequential(
              (0): ConvBNActivation(
                (0): Conv2d(32, 192, kernel_size=(1, 1), stride=(1, 1), bias=False)
                (1): BatchNorm2d(192, eps=1e-05, momentum=0.1, affine=True, track_running_stats=True)
                (2): ReLU6(inplace=True)
              )
              (1): ConvBNActivation(
                (0): Conv2d(192, 192, kernel_size=(3, 3), stride=(1, 1), padding=(1, 1), groups=192, bias=False)
                (1): BatchNorm2d(192, eps=1e-05, momentum=0.1, affine=True, track_running_stats=True)
                (2): ReLU6(inplace=True)
              )
              (2): Conv2d(192, 32, kernel_size=(1, 1), stride=(1, 1), bias=False)
              (3): BatchNorm2d(32, eps=1e-05, momentum=0.1, affine=True, track_running_stats=True)
            )
          )
          (6): InvertedResidual(
            (conv): Sequential(
              (0): ConvBNActivation(
                (0): Conv2d(32, 192, kernel_size=(1, 1), stride=(1, 1), bias=False)
                (1): BatchNorm2d(192, eps=1e-05, momentum=0.1, affine=True, track_running_stats=True)
                (2): ReLU6(inplace=True)
              )
              (1): ConvBNActivation(
                (0): Conv2d(192, 192, kernel_size=(3, 3), stride=(1, 1), padding=(1, 1), groups=192, bias=False)
                (1): BatchNorm2d(192, eps=1e-05, momentum=0.1, affine=True, track_running_stats=True)
                (2): ReLU6(inplace=True)
              )
              (2): Conv2d(192, 32, kernel_size=(1, 1), stride=(1, 1), bias=False)
              (3): BatchNorm2d(32, eps=1e-05, momentum=0.1, affine=True, track_running_stats=True)
            )
          )
          (7): InvertedResidual(
            (conv): Sequential(
              (0): ConvBNActivation(
                (0): Conv2d(32, 192, kernel_size=(1, 1), stride=(1, 1), bias=False)
                (1): BatchNorm2d(192, eps=1e-05, momentum=0.1, affine=True, track_running_stats=True)
                (2): ReLU6(inplace=True)
              )
              (1): ConvBNActivation(
                (0): Conv2d(192, 192, kernel_size=(3, 3), stride=(2, 2), padding=(1, 1), groups=192, bias=False)
                (1): BatchNorm2d(192, eps=1e-05, momentum=0.1, affine=True, track_running_stats=True)
                (2): ReLU6(inplace=True)
              )
              (2): Conv2d(192, 64, kernel_size=(1, 1), stride=(1, 1), bias=False)
              (3): BatchNorm2d(64, eps=1e-05, momentum=0.1, affine=True, track_running_stats=True)
            )
          )
          (8): InvertedResidual(
            (conv): Sequential(
              (0): ConvBNActivation(
                (0): Conv2d(64, 384, kernel_size=(1, 1), stride=(1, 1), bias=False)
                (1): BatchNorm2d(384, eps=1e-05, momentum=0.1, affine=True, track_running_stats=True)
                (2): ReLU6(inplace=True)
              )
              (1): ConvBNActivation(
                (0): Conv2d(384, 384, kernel_size=(3, 3), stride=(1, 1), padding=(1, 1), groups=384, bias=False)
                (1): BatchNorm2d(384, eps=1e-05, momentum=0.1, affine=True, track_running_stats=True)
                (2): ReLU6(inplace=True)
              )
              (2): Conv2d(384, 64, kernel_size=(1, 1), stride=(1, 1), bias=False)
              (3): BatchNorm2d(64, eps=1e-05, momentum=0.1, affine=True, track_running_stats=True)
            )
          )
          (9): InvertedResidual(
            (conv): Sequential(
              (0): ConvBNActivation(
                (0): Conv2d(64, 384, kernel_size=(1, 1), stride=(1, 1), bias=False)
                (1): BatchNorm2d(384, eps=1e-05, momentum=0.1, affine=True, track_running_stats=True)
                (2): ReLU6(inplace=True)
              )
              (1): ConvBNActivation(
                (0): Conv2d(384, 384, kernel_size=(3, 3), stride=(1, 1), padding=(1, 1), groups=384, bias=False)
                (1): BatchNorm2d(384, eps=1e-05, momentum=0.1, affine=True, track_running_stats=True)
                (2): ReLU6(inplace=True)
              )
              (2): Conv2d(384, 64, kernel_size=(1, 1), stride=(1, 1), bias=False)
              (3): BatchNorm2d(64, eps=1e-05, momentum=0.1, affine=True, track_running_stats=True)
            )
          )
          (10): InvertedResidual(
            (conv): Sequential(
              (0): ConvBNActivation(
                (0): Conv2d(64, 384, kernel_size=(1, 1), stride=(1, 1), bias=False)
                (1): BatchNorm2d(384, eps=1e-05, momentum=0.1, affine=True, track_running_stats=True)
                (2): ReLU6(inplace=True)
              )
              (1): ConvBNActivation(
                (0): Conv2d(384, 384, kernel_size=(3, 3), stride=(1, 1), padding=(1, 1), groups=384, bias=False)
                (1): BatchNorm2d(384, eps=1e-05, momentum=0.1, affine=True, track_running_stats=True)
                (2): ReLU6(inplace=True)
              )
              (2): Conv2d(384, 64, kernel_size=(1, 1), stride=(1, 1), bias=False)
              (3): BatchNorm2d(64, eps=1e-05, momentum=0.1, affine=True, track_running_stats=True)
            )
          )
          (11): InvertedResidual(
            (conv): Sequential(
              (0): ConvBNActivation(
                (0): Conv2d(64, 384, kernel_size=(1, 1), stride=(1, 1), bias=False)
                (1): BatchNorm2d(384, eps=1e-05, momentum=0.1, affine=True, track_running_stats=True)
                (2): ReLU6(inplace=True)
              )
              (1): ConvBNActivation(
                (0): Conv2d(384, 384, kernel_size=(3, 3), stride=(1, 1), padding=(1, 1), groups=384, bias=False)
                (1): BatchNorm2d(384, eps=1e-05, momentum=0.1, affine=True, track_running_stats=True)
                (2): ReLU6(inplace=True)
              )
              (2): Conv2d(384, 96, kernel_size=(1, 1), stride=(1, 1), bias=False)
              (3): BatchNorm2d(96, eps=1e-05, momentum=0.1, affine=True, track_running_stats=True)
            )
          )
          (12): InvertedResidual(
            (conv): Sequential(
              (0): ConvBNActivation(
                (0): Conv2d(96, 576, kernel_size=(1, 1), stride=(1, 1), bias=False)
                (1): BatchNorm2d(576, eps=1e-05, momentum=0.1, affine=True, track_running_stats=True)
                (2): ReLU6(inplace=True)
              )
              (1): ConvBNActivation(
                (0): Conv2d(576, 576, kernel_size=(3, 3), stride=(1, 1), padding=(1, 1), groups=576, bias=False)
                (1): BatchNorm2d(576, eps=1e-05, momentum=0.1, affine=True, track_running_stats=True)
                (2): ReLU6(inplace=True)
              )
              (2): Conv2d(576, 96, kernel_size=(1, 1), stride=(1, 1), bias=False)
              (3): BatchNorm2d(96, eps=1e-05, momentum=0.1, affine=True, track_running_stats=True)
            )
          )
          (13): InvertedResidual(
            (conv): Sequential(
              (0): ConvBNActivation(
                (0): Conv2d(96, 576, kernel_size=(1, 1), stride=(1, 1), bias=False)
                (1): BatchNorm2d(576, eps=1e-05, momentum=0.1, affine=True, track_running_stats=True)
                (2): ReLU6(inplace=True)
              )
              (1): ConvBNActivation(
                (0): Conv2d(576, 576, kernel_size=(3, 3), stride=(1, 1), padding=(1, 1), groups=576, bias=False)
                (1): BatchNorm2d(576, eps=1e-05, momentum=0.1, affine=True, track_running_stats=True)
                (2): ReLU6(inplace=True)
              )
              (2): Conv2d(576, 96, kernel_size=(1, 1), stride=(1, 1), bias=False)
              (3): BatchNorm2d(96, eps=1e-05, momentum=0.1, affine=True, track_running_stats=True)
            )
          )
          (14): InvertedResidual(
            (conv): Sequential(
              (0): ConvBNActivation(
                (0): Conv2d(96, 576, kernel_size=(1, 1), stride=(1, 1), bias=False)
                (1): BatchNorm2d(576, eps=1e-05, momentum=0.1, affine=True, track_running_stats=True)
                (2): ReLU6(inplace=True)
              )
              (1): ConvBNActivation(
                (0): Conv2d(576, 576, kernel_size=(3, 3), stride=(2, 2), padding=(1, 1), groups=576, bias=False)
                (1): BatchNorm2d(576, eps=1e-05, momentum=0.1, affine=True, track_running_stats=True)
                (2): ReLU6(inplace=True)
              )
              (2): Conv2d(576, 160, kernel_size=(1, 1), stride=(1, 1), bias=False)
              (3): BatchNorm2d(160, eps=1e-05, momentum=0.1, affine=True, track_running_stats=True)
            )
          )
          (15): InvertedResidual(
            (conv): Sequential(
              (0): ConvBNActivation(
                (0): Conv2d(160, 960, kernel_size=(1, 1), stride=(1, 1), bias=False)
                (1): BatchNorm2d(960, eps=1e-05, momentum=0.1, affine=True, track_running_stats=True)
                (2): ReLU6(inplace=True)
              )
              (1): ConvBNActivation(
                (0): Conv2d(960, 960, kernel_size=(3, 3), stride=(1, 1), padding=(1, 1), groups=960, bias=False)
                (1): BatchNorm2d(960, eps=1e-05, momentum=0.1, affine=True, track_running_stats=True)
                (2): ReLU6(inplace=True)
              )
              (2): Conv2d(960, 160, kernel_size=(1, 1), stride=(1, 1), bias=False)
              (3): BatchNorm2d(160, eps=1e-05, momentum=0.1, affine=True, track_running_stats=True)
            )
          )
          (16): InvertedResidual(
            (conv): Sequential(
              (0): ConvBNActivation(
                (0): Conv2d(160, 960, kernel_size=(1, 1), stride=(1, 1), bias=False)
                (1): BatchNorm2d(960, eps=1e-05, momentum=0.1, affine=True, track_running_stats=True)
                (2): ReLU6(inplace=True)
              )
              (1): ConvBNActivation(
                (0): Conv2d(960, 960, kernel_size=(3, 3), stride=(1, 1), padding=(1, 1), groups=960, bias=False)
                (1): BatchNorm2d(960, eps=1e-05, momentum=0.1, affine=True, track_running_stats=True)
                (2): ReLU6(inplace=True)
              )
              (2): Conv2d(960, 160, kernel_size=(1, 1), stride=(1, 1), bias=False)
              (3): BatchNorm2d(160, eps=1e-05, momentum=0.1, affine=True, track_running_stats=True)
            )
          )
          (17): InvertedResidual(
            (conv): Sequential(
              (0): ConvBNActivation(
                (0): Conv2d(160, 960, kernel_size=(1, 1), stride=(1, 1), bias=False)
                (1): BatchNorm2d(960, eps=1e-05, momentum=0.1, affine=True, track_running_stats=True)
                (2): ReLU6(inplace=True)
              )
              (1): ConvBNActivation(
                (0): Conv2d(960, 960, kernel_size=(3, 3), stride=(1, 1), padding=(1, 1), groups=960, bias=False)
                (1): BatchNorm2d(960, eps=1e-05, momentum=0.1, affine=True, track_running_stats=True)
                (2): ReLU6(inplace=True)
              )
              (2): Conv2d(960, 320, kernel_size=(1, 1), stride=(1, 1), bias=False)
              (3): BatchNorm2d(320, eps=1e-05, momentum=0.1, affine=True, track_running_stats=True)
            )
          )
          (18): ConvBNActivation(
            (0): Conv2d(320, 1280, kernel_size=(1, 1), stride=(1, 1), bias=False)
            (1): BatchNorm2d(1280, eps=1e-05, momentum=0.1, affine=True, track_running_stats=True)
            (2): ReLU6(inplace=True)
          )
        )
      )
    )
    (heads): LaneATT(
      (conv1): Conv2d(1280, 64, kernel_size=(1, 1), stride=(1, 1))
      (cls_layer): Linear(in_features=1408, out_features=2, bias=True)
      (reg_layer): Linear(in_features=1408, out_features=73, bias=True)
      (attention_layer): Linear(in_features=704, out_features=999, bias=True)
    )
  )
)
2024-11-26 03:10:02,640 - lanedet.utils.recorder - INFO - Build train loader...
2024-11-26 03:10:02,641 - lanedet.datasets.base_dataset - INFO - Loading TuSimple annotations...
2024-11-26 03:10:02,641 - lanedet.datasets.base_dataset - INFO - /home/ti121alk/Dokumente/lanedet
2024-11-26 03:10:03,091 - lanedet.datasets.base_dataset - INFO - /home/ti121alk/Dokumente/lanedet
…
